src/bert-lora-for-author-profiling/adapter_model.safetensors (safetensors, 341956 bytes, 52 tensors)

base_model.model.age_classifier.bias f4 [11]
00000000: 277a 083c 2f3d 21be 7891 1a3d e8a4 8bbc
00000010: 32bd d5b8 d8f0 1bbc 024f 9bbc 9425 00bd
00000020: 55b7 1fbe d2f2 1fbe a86c 1fbe
0.008329905 -0.15745996 0.037736386 -0.017046407 -0.00010191872 -0.009517871 -0.018958572 -0.031285837
-0.1559728 -0.15619972 -0.15568793

base_model.model.age_classifier.weight f4 [11, 768]
00000000: 6b4f ca3b 8be5 41bd 4207 e1bb d9f4 973d
00000010: 3b9b 0cbd ecbc 26bd fe47 af3b 753e d43c
00000020: 6264 543d 534a fdbc 23b7 db3c d585 47bd
00000030: bfc5 4ebc fd5b 1b3d 6d84 8b3d 37c0 9bbc
00000040: 004f a7bc d10c 153d c04e d83c eb4f 98bd
00000050: f20c c6bc ca5a c43c ecae d3bc 4abf c7bc
00000060: 73ad f03c 1c02 953b de22 e73c 931b 163c
00000070: b054 253d 569e 04bd a3b1 263d 0a52 bfbc
00000080: 4b98 d83b 4753 b93b 84e9 46bc 220c b7bc
00000090: 22e2 0dbd 397d dcba 4b49 163c c05f 11bb
000000a0: c89f 50bc 05dd cc3c 30f2 6ebc 92d4 4ebc
000000b0: 00c7 34bc baeb bc3b 2181 8d3c 8b4a 383d
000000c0: 3f21 013d f318 f4bc 1031 1e3b a139 83bc
000000d0: 6073 a4bd e747 25bd cebf 423b 30ba 2239
000000e0: bc76 7f3c 73c9 b0bc 1c2c a1bc 7489 bcbc
000000f0: c696 a9bc 3f30 663c 194a 693c c916 373d
00000100: b3bf 9139 2be1 29bb 65b7 68bd 0980 0f3c
00000110: eefa 82bd a636 f33c a26d 5bbc d2eb d8bc
00000120: a045 6a3b 3988 c8bc 6fcf 0b3b 28d8 a33c
00000130: e154 643c 5645 253d bf24 5d3c d2d8 b63c
00000140: e299 2ebd 5c14 edbc f41d 053d eda5 383d
00000150: 6693 cfbd 975e 9ebb 1f73 c33c 8dc5 da3b
00000160: 5f0b 073c 00d1 e1bc af76 70bc 28b4 d6bb
00000170: b92a 833d ed1a 91bc ac62 233d fe18 e13c
00000180: 9280 233d 4025 843c e0b0 a63b c915 c63b
00000190: c6eb 1c3d 28dc 6c3b e85d f83b 811e b43a
000001a0: 4d23 0a3d 8949 543c a51f 753b 5150 81bc
000001b0: 8d95 ad3c 236a 3abc 96db ccbb b4aa c9bc
000001c0: fe83 56bd 259f 6cbb 96f3 8f3b afda 5fbb
000001d0: b129 17bc c843 9b3c 25c8 bb3c 04fc 963d
000001e0: 4866 933c fbdf 20bd a268 363d 6687 6dbc
000001f0: e000 15bc 9f7c 813c 6bd2 61bd 7e46 6dbc
00000200: 98f8 653d 71a1 babc 3882 333d 9cdc 133c
00000210: e35b 213d feaf b53c 8955 35bd 6dc6 90bd
00000220: 574e 8f3b ffd7 283a 0b15 3c3d e054 e1bb
00000230: 0c41 ca3c 7170 81bd 1262 3c3c f0d2 f73c
00000240: e6df 5dbd b28f b23c 0581 81bd 8cdc f7ba
00000250: f143 abbc 07e4 b5bc 959b c8bd 9c4d c9bc
00000260: 2380 e83c 7a9b cc3b 5d58 dabc eef6 433d
00000270: bd30 5dbd b5b9 3ebd cc33 bcbc 64bb 393c
00000280: b741 5c3b a44e a93c b7a2 d0bc 0478 bb3b
00000290: a5a3 9c3c c35e f93c 65f1 eb3a ba10 22bc
000002a0: 51f0 d23b f2cc 9abd d493 ed3c 327d dd3b
000002b0: aa09 a63a 5e3d 5c3b 1687 d1bc 9fda ddbc
000002c0: bf18 b8bc 4fc3 1a3d 677e 193c 2976 0bbd
000002d0: 5118 5cbb 9a86 06bc c9da 023c 49b5 383c
000002e0: 515c 7abc 70cb 913c 219d 1d3d 10e0 00bb
000002f0: 48c0 cfbc 560f d3bc 730e 06bd b0e9 8a3b
00000300: 1d4d f5bc b5d0 143d 7677 2c3d abcc ccbd
00000310: dfed d5bc 3090 91bc 6554 29bd fe89 6d3c
00000320: 5ddc 2fbd 8ae9 7cbd f78d e83b c633 46bb
00000330: 9ae5 29bd 2bce 373c b047 4c3d 77b2 ca3a
00000340: f40b 0cbc db36 aabc a47c ffbb fc8d c73b
00000350: 95c4 18bd 535b a33d 0116 de3c 75ab c63b
00000360: 97a3 693d 52c7 55bd 85e4 0e3d 009a 4bbc
00000370: 4769 233d 177e 6bbd f3e1 cab9 5acd 63bd
00000380: d71d 03bd b257 a4bb 3236 e3bc 99cf fbbb
00000390: 9490 5cbc a2f5 35bd a8d7 e73c bfe2 053d
000003a0: 3466 5c3a ccc5 593c 7b96 42bb 2159 40ba
000003b0: c940 b7bc 8316 03bc f81d d33c 3457 ab3c
000003c0: 2958 2c3c 6d6c f73c 40d4 8ebb 8f3d d43c
000003d0: a9ca e33b bce3 ae3c 8d1e 93bb 40db 413b
000003e0: f4fe 843b 85e2 81bb 00ca c73c 9939 90bc
000003f0: 4e6e 01bc 386a 2d3d 44b0 b33c 4a5b 5cbd
0.006174018 -0.04733805 -0.0068673203 0.07419748 -0.034327727 -0.040707514 0.0053491583 0.025908688
0.051853545 -0.03091923 0.026820725 -0.048711617 -0.0126203885 0.037929524 0.068123676 -0.019012554
-0.020423412 0.036389176 0.026404738 -0.07437118 -0.024176095 0.023969073 -0.025840245 -0.024383206
0.029379582 0.0045473706 0.028214868 0.009161848 0.040363967 -0.032377563 0.04069675 -0.023354549
0.0066099516 0.0056556794 -0.012140635 -0.022344653 -0.034639485 -0.0016821987 0.009172748 -0.0022182316
-0.012733407 0.025007734 -0.014584109 -0.012623923 -0.011033773 0.0057654055 0.017273488 0.044992965
0.031525847 -0.029797053 0.002413813 -0.01601869 -0.080298185 -0.040351775 0.0029716375 0.00015518884
0.015592273 -0.021580433 -0.019674353 -0.023014762 -0.020701777 0.014049589 0.014238858 0.044699464
0.00027799382 -0.0025921564 -0.056815524 0.008758553 -0.06395517 0.029689144 -0.013392838 -0.026479635
0.0035747066 -0.024479019 0.0021333357 0.020000532 0.013936252 0.040349327 0.0134975305 0.022320185
-0.042627223 -0.028940372 0.03249927 0.045080114 -0.10135536 -0.0048330533 0.023858605 0.006676382
0.008242457 -0.02756548 -0.014676734 -0.006552238 0.06404633 -0.017713035 0.039889023 0.027477738
0.039917536 0.016131043 0.005087003 0.0060450775 0.03831079 0.0036141966 0.007579554 0.0013742001
0.03372507 0.012956985 0.0037402895 -0.015785368 0.021189475 -0.011377844 -0.0062517626 -0.02461753
-0.05237197 -0.00361056 0.0043930514 -0.0034157445 -0.009226249 0.018953219 0.022922585 0.07372287
0.017993107 -0.039276104 0.04453338 -0.0144976135 -0.009094447 0.015806494 -0.05513231 -0.014482139
0.05614528 -0.02278206 0.04382536 0.009024765 0.03939427 0.022178646 -0.044271026 -0.07069097
0.0043733525 0.00064408773 0.045918506 -0.006876573 0.02468922 -0.063202746 0.011497991 0.03025195
-0.054168604 0.021797035 -0.06323437 -0.0018910333 -0.02090642 -0.022203458 -0.097953 -0.02457314
0.028381413 0.00624412 -0.026653463 0.047842912 -0.05400156 -0.046563823 -0.022973917 0.011336181
0.0033608505 0.020667382 -0.025468213 0.005721094 0.019121 0.030440694 0.0018001018 -0.009891683
0.0064373394 -0.075586215 0.029001154 0.006759309 0.0012667675 0.0033605914 -0.02557711 -0.027081786
-0.022472737 0.037783917 0.009368516 -0.034048233 -0.003358383 -0.008210802 0.007986733 0.0112736905
-0.015280799 0.017797202 0.038479928 -0.0019664802 -0.025360242 -0.025764149 -0.032728624 0.0042392835
-0.029943997 0.03633185 0.042106114 -0.09999975 -0.026114402 -0.01776895 -0.04134025 0.014498232
-0.042934764 -0.061746158 0.0070970017 -0.0030243262 -0.04147873 0.011218588 0.049873054 0.0015464564
-0.008547772 -0.02077811 -0.0077968407 0.006089924 -0.03729685 0.07976403 0.027110102 0.0060629197
0.057040777 -0.05219204 0.034885902 -0.012426853 0.039895322 -0.057493296 -0.00038696788 -0.05561576
-0.03201088 -0.005015337 -0.027735803 -0.0076846597 -0.0134622045 -0.044423707 0.028301075 0.032686945
0.00084075634 0.013291787 -0.0029691744 -0.00073375 -0.02236976 -0.008000973 0.025771126 0.020915605
0.010519066 0.030203069 -0.0043587983 0.02590826 0.006951649 0.021348827 -0.004489726 0.0029580146
0.004058713 -0.003963771 0.024388313 -0.01760559 -0.007899834 0.042337626 0.021934636 -0.053797998

base_model.model.bert.encoder.layer.0.attention.self.query.lora_A.weight f4 [2, 768]
00000000: 715d b73c ec42 9f3c 29f9 81bc 9408 2d3d
00000010: 340b 273d 3845 2d3d 0ba4 3ebd cd66 323d
00000020: 1701 393d d164 91bd 37ae 243d 9c17 0e3d
00000030: 2b31 03bd aebc 0abd d7b7 91bd a561 6a3d
00000040: 5d01 3a3d ef9f 09bc 5690 b13d 4fc9 d7bd
00000050: 3e99 babd dec7 40bc c75a bf39 8c1a e93b
00000060: cbdc 303d 3d70 6abd 771b 9fbc 6903 9dbc
00000070: 21ab 903d 7338 b23d e287 d0bd 2106 fc3c
00000080: 3293 2dbd b51f d8bb c1de 84bd 9f56 eebd
00000090: 69f7 b2bc 98cb e53b 5432 6a3d 7a39 16bd
000000a0: 9759 6bbd 4cda f73c 68c6 90bc 7f11 e0bc
000000b0: cdcb fb3d 1c6c 08bd 9f07 97bd ac86 00bd
000000c0: 3705 b73c df87 1bbd 54f4 e33c 1347 b3bc
000000d0: 2283 a1bd 8e89 1e3d 0a7e f53c 62d8 19bd
000000e0: bd87 82bd c03a 75bd 0810 8d3c b841 85bd
000000f0: ec83 a13c f0b7 e23c e155 84bd 5b59 d53d
00000100: 24ae 883c 7275 8e3d f79e 7dbd 15a9 86ba
00000110: 4d83 a23d a879 a2bd 5759 58bd 0872 213d
00000120: d8e1 523c 893e 8ebc 7a14 d4bd 22cd b6bd
00000130: 419d 883d 7bae 3ebd aded 92bc 099d 573d
00000140: a1ca c0bd 74eb d8bb c22a 1ebc d9ab bd3d
00000150: a2bc 31bd 08dd 8cbd f6c6 b0bb 7041 2d3d
00000160: 3924 833c 46ee afbc ada8 49bc c7c4 0abc
00000170: 5e88 1f3d 8d58 bdbd 2944 2c3c 3d58 dfbb
00000180: 5a78 37bd c9a3 0fbd 4eea 083d 05c5 abbd
00000190: feb6 0a3b c80c 19bd 03bf 70bc d6e6 e6bd
000001a0: a2af b7bd 83cf c73c fbd0 97bc d7e1 043e
000001b0: 58cc dd3d 6e5a 883a 4f53 b43d b0a2 53bc
000001c0: d955 de3d bd7d e73d 0067 a43d 6e2b 2b3d
000001d0: de2d 6a3d 9222 e9bd 7a67 17be 2982 23bd
000001e0: 5790 90bc adbf 82bc f88c f13d 3a72 eb3c
000001f0: 99b3 983d 4470 893d b2dc abbd c2ef 0b3c
00000200: e764 d6bd b23b 27bc 9d13 293d e764 8d3c
00000210: 618e 87bd 6757 7b3c 259d 0abc 1a2d 4a3d
00000220: efe5 663d aefb 5dbc e977 88bc e669 df3c
00000230: cbe8 e6bd 4cc4 8ebd 4d01 aebd 07de 2c3d
00000240: 320f 9b3c 1fb0 0cbd 2374 9bba d70a 6f3c
00000250: e88c ab3c e1c0 d23d b374 f5bc af3f e3ba
00000260: 92c6 023d 47e5 14bd dfe2 adbd fd58 89bd
00000270: 78b8 273d e765 b73c fadf 2c3d f439 1cbe
00000280: 8b35 3bbd d716 9abd b236 953d f37a 93bd
00000290: d35b 633b 3eaa b63c 36ef 7b3c 3ad6 87bc
000002a0: 0516 b93d 10a1 82bc 896e 65bd d6fa cebd
000002b0: 2670 adbc e457 90bc e40f 25bd e131 283e
000002c0: b17a 7fbd 4329 dabc 7cfa 4d3d d336 c3bb
000002d0: 24c4 023d f634 e33d 654e 48bd ba8c 6cbd
000002e0: 0a39 31bc 4506 313d 0db6 d73c 1cb1 42bc
000002f0: d1ad b7bb 6c84 3e3d 8390 913d a9d9 33bd
00000300: c102 2abb 5770 9f3d cbe4 8ebd 2759 aabb
00000310: f7d2 eaba eb5c 813c cf82 c9bd 8758 bbbc
00000320: 16d3 8d3c a390 3fbd 438d e3bd 0c10 bfbd
00000330: a2a3 443d b9a6 4ebc 1204 593d 0098 1a3c
00000340: 6ebc ccbc e41b bcbd a9fe 3d3b 0e03 95bd
00000350: 7624 be3d 2077 9c3c eb9c b7bc a3ba a4bd
00000360: 3ad4 eb3d b7a4 203d 948b efbb d32a 9bbd
00000370: f2a5 013b 6e20 6a3d 703c 22bd 60f8 793c
00000380: 3961 963d 9114 983c 8556 4a3d 2e1b d4bc
00000390: 031f 27bc 23bb febd 53f1 533d 6408 c6bd
000003a0: 6177 8bbb 90d0 bcbc 7805 793c 0daf d63c
000003b0: fd0d 13bc 6920 df3d b425 da3b 4cf4 123d
000003c0: f022 0ebe 4958 b7bc 60bd 8b3c 0ee8 973d
000003d0: 0996 acbc 16da 5cbd eff1 f83d 6660 083c
000003e0: 9ff1 813d 7a5e 913c 05ee 10bd d35b 7b3c
000003f0: 1e27 d0bc a81e 14be 929b e1bd 876e 913d
0.022383424 0.01944109 -0.01586588 0.04224451 0.04078217 0.04230234 -0.046543162 0.04355507
0.045167055 -0.07099307 0.040205207 0.034690484 -0.032029312 -0.033871345 -0.07115143 0.057222027
0.045411456 -0.008399948 0.08670108 -0.105364434 -0.0911126 -0.011766402 0.00036497993 0.0071137603
0.043179315 -0.057235945 -0.019422276 -0.019166665 0.0706389 0.08702173 -0.101821676 0.030764641
-0.042376705 -0.0065955766 -0.064877994 -0.116376154 -0.02184649 0.0070127957 0.057176903 -0.036675908
-0.057458486 0.03025546 -0.017672732 -0.027352093 0.12294731 -0.033306226 -0.073745005 -0.031378433
0.022341354 -0.037971374 0.027826466 -0.021884477 -0.0788634 0.0387054 0.029967327 -0.037559874
-0.06373546 -0.05987048 0.017219558 -0.065066755 0.019716226 0.027675599 -0.064616926 0.10417434
0.0166846 0.06955995 -0.06191918 -0.0010273779 0.079352 -0.0793336 -0.052819576 0.03941539
0.012871228 -0.017363803 -0.10355468 -0.08925845 0.06670619 -0.046553116 -0.017935598 0.052639995
-0.094136484 -0.006619865 -0.009653749 0.09261293 -0.043392785 -0.06878096 -0.0053948117 0.042298734
0.016008483 -0.021475922 -0.012308282 -0.008469767 0.03894841 -0.09245405 0.0105142975 -0.0068159387
-0.04479251 -0.035068307 0.033426575 -0.08387188 0.00211662 -0.037365705 -0.014693978 -0.11274497
-0.08969046 0.024390941 -0.018532267 0.12976776 0.10829991 0.0010402927 0.08804952 -0.012917206
0.10856218 0.113032795 0.08027458 0.041789465 0.05717265 -0.11383547 -0.14785567 -0.039919052
-0.017646952 -0.015960539 0.11794466 0.02874099 0.074561305 0.06710866 -0.08391704 0.008541049
-0.10468464 -0.010207104 0.04127847 0.017260028 -0.066189535 0.015340663 -0.008460318 0.04935942
0.056371626 -0.013548775 -0.01665874 0.027272176 -0.112748705 -0.069710344 -0.08496342 0.04220393
0.018928144 -0.03434765 -0.0011860173 0.014589987 0.020941213 0.10290695 -0.029962873 -0.0017337705
0.031927653 -0.03635147 -0.08490538 -0.06706426 0.040947407 0.022387458 0.04220579 -0.15256482
-0.04570536 -0.075238876 0.07285823 -0.07201185 0.0034692183 0.022297975 0.015376857 -0.016581643
0.09037403 -0.015945941 -0.056013618 -0.10106437 -0.02117164 -0.017620035 -0.040298358 0.16425277
-0.062372867 -0.026631003 0.05028771 -0.0059574633 0.031925336 0.11094086 -0.048902888 -0.057751395
-0.010816822 0.04321887 0.026331926 -0.0118830465 -0.0056054373 0.046513006 0.071076415 -0.04390875
-0.0025941583 0.07785099 -0.069772325 -0.005198616 -0.0017915656 0.015791377 -0.09839403 -0.022869362
0.017312568 -0.046768796 -0.11110928 -0.093292326 0.048007615 -0.012612992 0.052982397 0.009435654
-0.024992194 -0.09185007 0.00289909 -0.07275973 0.09284298 0.019099772 -0.022413692 -0.08043411
0.115150884 0.039219584 -0.00731034 -0.075765274 0.001978275 0.057159834 -0.03960842 0.015256971
0.073427625 0.018564494 0.049398918 -0.025891867 -0.010200265 -0.12438037 0.051743817 -0.09669569
-0.0042561744 -0.02304867 0.015199058 0.026206518 -0.008975503 0.108948536 0.0066573266 0.03587751
-0.13880515 -0.022380965 0.017058074 0.07417308 -0.021067636 -0.05391892 0.1215552 0.008323764
0.06344914 0.017745245 -0.035383243 0.015341717 -0.025409278 -0.1446482 -0.11016001 0.071011595

base_model.model.bert.encoder.layer.0.attention.self.query.lora_B.weight f4 [768, 2]
00000000: 833b 9fbc 8a3c dc3c f386 a4bc 6d57 0f3c
00000010: 10f9 1f3b 8510 81ba 7abf cebc 4757 483c
00000020: cc10 dabb c9d4 8a3c 726e 97bb 7204 43bc
00000030: f00a f33c 139d 5cbd 381b fa3c 435a ffbc
00000040: be06 b63c 4c44 e5bb 8cf9 303d 435e 15bd
00000050: e4f9 c43c 1e7d d33c 1532 9f3c c5a4 83bc
00000060: 33b7 833d ed71 47bd 3e01 aa3d 1b39 66bd
00000070: 10fa f9bd a4dc 563d 6c10 cfbb b10a 2bbc
00000080: a98c 3a3d 7422 ffbc 462a 78bd 94c8 cd3c
00000090: a462 3ebc 8db0 4e3b a772 b4bb 3504 08bd
000000a0: 603e e2bc d85a c93c 1af0 5abb 9f0b 92bc
000000b0: bced 4d3d e339 02bd 3a64 fbb9 1159 24bc
000000c0: bb65 d6bb b3bd ff3c 970d 29bc 3f8b 0d3d
000000d0: dc37 823d a8dd 1fbd 51de d33b 976e afbc
000000e0: 098e fd3c ea3b 3ebc 1a0f 24bd 0fa0 7b3d
000000f0: 9b36 5c3c 7652 77bb b7c9 ecbc 62d0 d63b
00000100: 0ae9 603d e009 fb3a 2b06 983d 7fa6 04bd
00000110: f23a ffbc be6d 7a3c 12ef 163b 7359 143c
00000120: 4f86 023d a0f9 92bc 1c73 1cbb 717a 9fba
00000130: 1a49 d23b a9e3 37bd 3675 e2bb 7276 07bc
00000140: 7c76 ebbc 66a9 4f3d d5c2 e6bc 317c 6b3d
00000150: 35a0 a83c fc4b 5cbc e4dc 0abd a354 6e3d
00000160: c499 883b ef36 d63c 6382 b93c cd13 08bc
00000170: e9f6 043c 5805 b03b f263 5dba d585 933b
00000180: 59c2 273d eaf9 10bb af95 17bd b8a5 6f3b
00000190: 614b 663c 1b36 8fbc ebc6 cbbc b176 423c
000001a0: 0b59 3abd 342e 163d 10a6 953c 7e49 7e3c
000001b0: a68d c83a 4830 31bd 86cd 48bd 170b 8c3d
000001c0: 0476 183c 248c 5ebc 1ea3 13bc b027 d03c
000001d0: e503 943d b69f 2bbd 5fca c53c d62c 78bb
000001e0: cfde b5bc 8038 ebbb 88ea 3dbd c0e2 013c
000001f0: c186 c7bc 2011 583d 8b36 a63c adeb 05bd
00000200: 96db ca3b 3b48 753d 08bb 13bc 8cbe fe3c
00000210: eee8 263c 2cb6 cd3b 55a2 20bc 6d8f 6e3b
00000220: 4d31 eb3b 3ce1 e3bb 05cf 9abc 0eb6 633d
00000230: 9b0c 66bc 13e2 033d fa6e f737 f0b8 ed3c
00000240: d80d a83c 4ecd 203c 4980 233c c411 babc
00000250: 3245 6cbb e239 a43c 574f f9bb 3326 b73b
00000260: 6d7e 19bd 8aaf 573d ac57 0e3d 0a58 66bd
00000270: 9c35 693d d003 9c3c 0a3c bcbc f6ad cbbb
00000280: 6b9c 0ebc 1b74 113b fe3f 10bd 3bf5 be3c
00000290: fb94 aa3c d2f2 a33c 64b3 4e3a 32f2 5ebb
000002a0: 3455 34bc a5dd 943c dd9b 43bd 2bd4 b93c
000002b0: 7672 21bc 4d12 19bd e9a1 823d 1383 85ba
000002c0: fee8 243d df36 6a3b d183 20bc 5721 cdbc
000002d0: 57ba f13a 7eff 61bc 2e36 06bc 4a2f f13c
000002e0: 5d4e b439 e6ea bfbd 1449 99bc 7272 483d
000002f0: 6dd7 ba3c ce76 da3b cce1 eebb e305 00bc
00000300: 0f45 abbb 47e2 223d 2fba c93c 2775 053d
00000310: 7713 c53b 7923 723d 1535 15bb 6a66 0dbd
00000320: 14d6 96bc daec 6fbc 9111 1ebc 9178 09bc
00000330: c3c0 473c d9a3 9dbc a9c0 12bd d0c8 eebc
00000340: 4b4a dbbc 3186 c1bc ef2b 09bd 1745 733c
00000350: fa0f 8fbb 5963 9a3c fb6d 2f3c 472d 81bd
00000360: ba4f 25bd fc6f 2abc fcd8 44bd ffcb 123d
00000370: 05bd 993c dbaf 263d be3a 133c 3c05 c7ba
00000380: 0b13 823c d2ee 82bc 9397 22bd 9e4c 133d
00000390: a3ba 99bc 5a19 c2bc 1ac4 75bb 2588 863d
000003a0: 3f42 223d dd67 32bd 6b2d 57bc 5a93 04bd
000003b0: ca94 d73c 45b5 c2bc 11f7 aebc 9cbf 863c
000003c0: aa4c f93c b3bf 24bd 0441 afbc 3af9 dabb
000003d0: 1790 2e3d 5607 2c3b c7ae 283d c4ac c53c
000003e0: 8af3 033d 9a4d dd3c 69d8 223d 803c dcbc
000003f0: 2b3c a2bc 8bcc 233d 57c9 d13c b8ff 8b3c
-0.019437557 0.026884336 -0.02008388 0.008748871 0.0024409927 -0.0009846842 -0.025237788 0.01222784
-0.0066548344 0.016947167 -0.0046213204 -0.011902915 0.029668301 -0.053860735 0.030530557 -0.03117097
0.022220012 -0.006996667 0.043206736 -0.036466848 0.024044938 0.025816496 0.01943306 -0.01606978
0.06431427 -0.048692632 0.08301018 -0.056206804 -0.12205899 0.052456513 -0.0063190963 -0.010439561
0.0455443 -0.031144358 -0.06058719 0.025120057 -0.011620197 0.0031538338 -0.0055068317 -0.033207137
-0.027617633 0.02457945 -0.0033407272 -0.017827807 0.05027555 -0.031793486 -0.00047949125 -0.010031001
-0.006542889 0.031218385 -0.0103181815 0.034556624 0.063583106 -0.039029747 0.006465711 -0.021415038
0.030951517 -0.011610964 -0.040053464 0.06143194 0.013440753 -0.003773836 -0.028904779 0.006555603
0.054909743 0.0019152723 0.074230514 -0.032385346 -0.031156037 0.015284954 0.002303068 0.0090545295
0.031866368 -0.017941296 -0.0023872321 -0.0012167228 0.006417406 -0.044894848 -0.0069109453 -0.008267986
-0.028743021 0.05069866 -0.028169075 0.057491485 0.020584205 -0.01344585 -0.033902064 0.058186185
0.004168721 0.026149241 0.022645181 -0.008305502 0.008115509 0.005371731 -0.0008445374 0.004502038
0.04095683 -0.0022121617 -0.037007984 0.0036567282 0.014056058 -0.017481854 -0.024875125 0.011869119
-0.045495074 0.036665156 0.018267661 0.015520452 0.0015301004 -0.043258935 -0.049024127 0.06838053
0.009305481 -0.013583217 -0.009011058 0.02540955 0.07227305 -0.04190036 0.02414435 -0.0037868521
-0.02220097 -0.007178366 -0.046366245 0.007927597 -0.024356248 0.052750707 0.02028968 -0.03269546
0.0061907275 0.059883337 -0.00901676 0.03109672 0.010187371 0.00627782 -0.009804328 0.0036401406
0.007177508 -0.0069543403 -0.018897543 0.055593543 -0.014041091 0.032198023 2.9496372e-05 0.02901885
0.020514414 0.009814573 0.009979316 -0.02271355 -0.0036051986 0.020047132 -0.007608335 0.0055892705
-0.037474085 0.05265764 0.03475158 -0.056236304 0.05693589 0.019044787 -0.022977848 -0.006215806
-0.008704285 0.0022194448 -0.035217278 0.023310294 0.020822993 0.020013247 0.00078850077 -0.0034018871
-0.011006642 0.018172095 -0.047756065 0.022684177 -0.00985395 -0.03737097 0.06378538 -0.0010186158
0.04026126 0.0035738272 -0.0097970525 -0.025040312 0.0018442374 -0.013793824 -0.008191628 0.029441494
0.0003439066 -0.09370975 -0.018711604 0.04893727 0.022807801 0.0066669947 -0.0072901007 -0.0078139035
-0.0052267383 0.039766576 0.024624912 0.03258243 0.0060142833 0.05911586 -0.0022767235 -0.034521498
-0.018412627 -0.014643872 -0.009647743 -0.008390562 0.012191954 -0.019243168 -0.035828266 -0.02914849
-0.026768824 -0.023623558 -0.033489164 0.014848015 -0.004365918 0.0188462 0.010707374 -0.06307464
-0.040359236 -0.010402676 -0.048058495 0.035839077 0.01876689 0.040695053 0.008986173 -0.0015184055
0.015878221 -0.015983019 -0.039695334 0.03596174 -0.018765753 -0.02369373 -0.003750092 0.06568936
0.03961396 -0.043556083 -0.013133387 -0.032367088 0.026316065 -0.023768077 -0.021358045 0.016448788
0.030432064 -0.04022188 -0.021393307 -0.006682542 0.042617884 0.002624949 0.041182306 0.024130233
0.03221468 0.027014542 0.039757166 -0.026884317 -0.019804081 0.03998999 0.025608702 0.01708971

base_model.model.bert.encoder.layer.0.attention.self.value.lora_A.weight f4 [2, 768]
00000000: 7cee d4bc fe7e 3e3d 1a99 09ba a66e 95bd
00000010: 16fe daba 17be 54bd 2930 37bd 2640 413c
00000020: 447b e5bd 2f1d 5d39 2ab5 a13d 38b2 1c3d
00000030: 987c f73d 1438 a1bc f0a8 173d a89d 3bbb
00000040: 035a 563d dbe4 aebd c956 573b 318a a43d
00000050: c161 9b3d 6e80 033d c943 d93b ea86 f1bc
00000060: 92db bb3d bc28 1e3d 4e74 36bd 9977 843d
00000070: 6595 d4bd 17f5 5b3d f6d8 0b3d b318 aebd
00000080: 6c89 b43b 9b9e 23bd adf4 69bc 5bf3 063d
00000090: ae42 143d 3f09 ecbc 367c 84bd e295 8c3c
000000a0: 6e95 4f3c 496c 95bd ea08 6a3b 22e9 20bd
000000b0: 65e8 023d 9505 10bc fa4b 98bc c9b3 53bd
000000c0: 1ea7 33bc d99b 45bc b48e 9a3d 4d9f a1bd
000000d0: b2ba be3d 42d4 333d 58b3 8bbc 3d39 0ebe
000000e0: bf8a b13d 5ec3 cdbc 7a98 81bc a16c dfbd
000000f0: a96a 7cbd cd15 99bb 5774 933c 2df2 303c
00000100: 8817 a63b a066 5f3d 0be0 95bd acca 1e3d
00000110: 20ff 3d3d 8c29 343c 73b2 a03d f4da 8ebd
00000120: f482 233d 95fd 523d 545a 373d e985 3d3d
00000130: c044 503c 61ef 253d 9394 1fbc 053e b2bd
00000140: be6b 473d b3ee 7cbd bc68 66bd eeb4 21bc
00000150: e5e4 8bbd 1c0f 35bd 5eec ec3c 4173 96bd
00000160: 6417 973d 4d7b 4cbd 3b9d c6b9 b2fe c83d
00000170: 7b4d 9c3d 92e0 97bc dd86 7e3c a5ee c13b
00000180: ab5c a3bc acbf 0bbd ad4a d93b 7d6e d2bc
00000190: 13b6 003c 022a 0ebd f8ec 713d d9d6 b23d
000001a0: 59a6 383d 817a 90bb 532b 54bc 110c db3c
000001b0: b875 6a3c 2ba1 9ebd 8428 0f3d 8153 3bbd
000001c0: 598c fabc 0739 62bb 2966 83bd e10a 0bbd
000001d0: 95ab 8dbd fbcb 023c 39b8 213e 7032 133d
000001e0: 8029 88bd 3956 6b3d ef70 6fbd b30f 393d
000001f0: 0cb2 153d c7a3 6f3d 1413 59bd 0a1f a3bb
00000200: ba89 183d d248 3d3c f3af 723d b595 e6bc
00000210: bfbd 0b3d 38a8 37bd 0b6b c9bd ac50 56bd
00000220: 397a 22bd c26d 87bd 3c7a eabc fc84 d6bb
00000230: af5b faba 45a5 39bb 5459 8ebd 6735 dbbd
00000240: 302b 923d 6943 04bd bfb5 b53d b600 c0bd
00000250: 6226 423d f708 f639 df4b ecbd 61b8 503d
00000260: 444f 383d 088e 1e3d cb22 403d a33c 6b3d
00000270: 4eae 10bd b772 993c 04f8 b0bc 8c64 b53b
00000280: 9a47 acbd d13f 173e a010 063d 783f 6e3d
00000290: 52a4 72bd 5e2d da3d e677 6dbd 9a0e 06bc
000002a0: 0a7b 80bc fc08 41bc c6cb 033d c217 5a3d
000002b0: 701c 823d 3d1f 95bd 6e2a 46bd 211d 6fbc
000002c0: 330d 9bbc f7c8 653d e9f8 553d 5046 43bc
000002d0: 4a1e 0d3a a107 443d b22d a9bc a98e 71bd
000002e0: 8ed1 343d 7bf6 b13d 7281 15bc 9ac9 3fbb
000002f0: c14a 043b 903c 9abd 7b52 89bd 3354 9f3d
00000300: 2418 d33d bee4 aebd 8a2a 61bd 68af 4ebc
00000310: 487b 823d 813a 683d 6ab5 bc3c d6a1 f83d
00000320: e64b bbbc 2f3d c13c b412 c43c 5a30 0bbd
00000330: 9c34 1a3d 4ef4 943d 1708 7e3d 97fe 533d
00000340: 7bc1 05bd d540 943d 7828 9dbd ce44 48bd
00000350: fda0 853d d00b cebb 0720 91ba 9727 2d3c
00000360: 66be 20bc 1edd 64bc a367 483d 187e 133d
00000370: c201 8c3d 56cc a03c c661 8cbc fbbe a0bc
00000380: 6821 213c aed1 1f3d 3596 02bd f814 fb3d
00000390: 9438 2b3d d16b 4cbc 9943 073d 06fd 273d
000003a0: c7d3 36bd 4dd6 013d a8a6 8cbc 91ef 933d
000003b0: fcf2 393d 22b6 72bd d7db e5bc bf6b c539
000003c0: f9cb e23c de7f 9c39 4df6 093d db3e 9f3d
000003d0: 48d4 f43d 59c3 4d3c d630 ca3c 6c7c d2bd
000003e0: d180 263d 9a04 fc3b 5e17 fabd ffab 2dbd
000003f0: 9785 203d 44d6 063e 0e58 8fbc 1011 223d
-0.025992624 0.046507828 -0.0005248949 -0.07296495 -0.0016707804 -0.051939096 -0.044723663 0.011795079
-0.11205152 0.00021087074 0.078958824 0.0382559 0.12084311 -0.01968006 0.037026346 -0.0028627906
0.052331936 -0.085397445 0.0032858124 0.080341704 0.075870045 0.032104902 0.006630395 -0.029483277
0.09172739 0.038613066 -0.04454451 0.06468124 -0.10380057 0.053700533 0.034142457 -0.08500805
0.005509546 -0.03994618 -0.014279527 0.032946926 0.036196403 -0.028813003 -0.06469004 0.017161313
0.012669904 -0.072960444 0.003571088 -0.039284833 0.03195991 -0.008790393 -0.018590916 -0.05168513
-0.010965137 -0.012061083 0.0754675 -0.07891712 0.09312953 0.043903597 -0.017053291 -0.13889022
0.08669042 -0.025117572 -0.015819777 -0.10909391 -0.061625157 -0.0046717883 0.017999811 0.010799927
0.005068723 0.05454123 -0.073181234 0.0387675 0.046385884 0.010996234 0.078465365 -0.06975356
0.03991981 0.051511366 0.044763878 0.046270285 0.012711704 0.040511493 -0.009740013 -0.087032355
0.048686735 -0.06175108 -0.056252226 -0.009869797 -0.068307675 -0.044203863 0.028921302 -0.07346202
0.07377508 -0.049922276 -0.0003788265 0.09814204 0.07631966 -0.0185397 0.015535084 0.005918341
-0.019941648 -0.03411834 0.0066312165 -0.02568745 0.00785591 -0.03470803 0.05906388 0.08732385
0.045080516 -0.004409135 -0.012949782 0.026739152 0.014310293 -0.07745584 0.034950748 -0.045733932
-0.030584501 -0.0034518854 -0.0641597 -0.03394592 -0.06917492 0.007983203 0.15792932 0.035936773
-0.066485405 0.057455275 -0.05845731 0.045180988 0.03654675 0.0585058 -0.05299671 -0.0049780654
0.03724072 0.011553006 0.05924983 -0.028147558 0.034116503 -0.04483816 -0.0983487 -0.05232303
-0.03966734 -0.066127315 -0.028622739 -0.0065466147 -0.001910081 -0.0028327268 -0.06950632 -0.10703545
0.071371436 -0.03229085 0.08872556 -0.093751356 0.047399886 0.00046927456 -0.11537909 0.050957087
0.04499747 0.03870967 0.04690818 0.057430875 -0.03532248 0.018731458 -0.021602638 0.0055356678
-0.084120944 0.14770438 0.0327307 0.058165997 -0.05923874 0.10653184 -0.057975672 -0.008182192
-0.01568367 -0.011781927 0.032176755 0.053245313 0.0635308 -0.07281349 -0.048380308 -0.014594347
-0.018927192 0.056099858 0.052239332 -0.011918619 0.00053832366 0.047858838 -0.020651672 -0.058973942
0.04414516 0.086895905 -0.0091251 -0.002926445 0.0020186158 -0.07531083 -0.06705185 0.077797316
0.10307339 -0.08539723 -0.05497221 -0.012615062 0.0637117 0.05669642 0.023035724 0.12140243
-0.02286334 0.023588745 0.0239347 -0.03398166 0.03764783 0.0727316 0.062019434 0.051756468
-0.03265522 0.07238928 -0.076737344 -0.048893742 0.06524847 -0.0062880293 -0.0011072167 0.010568521
-0.0098110195 -0.013968734 0.04892696 0.036008924 0.06836273 0.019628685 -0.017136466 -0.019622317
0.009834625 0.039018326 -0.03188153 0.12259859 0.041802004 -0.012476877 0.03302345 0.041012786
-0.04463556 0.031698514 -0.017169312 0.07223428 0.045397744 -0.059255727 -0.02805893 0.00037655045
0.027685152 0.00029849907 0.033682156 0.077756606 0.11954552 0.012558782 0.02468149 -0.10277638
0.040650193 0.0076909782 -0.12211488 -0.042400356 0.0391899 0.13167673 -0.017498042 0.039567053

base_model.model.bert.encoder.layer.0.attention.self.value.lora_B.weight f4 [768, 2]
00000000: 9b20 8cbc 95bd 333c d8eb 00bb 68a3 bf3b
00000010: 0ad4 cbbc 585d 933c b713 dabc ae0c 033d
00000020: d414 5a3d 1598 38bd 4d50 a9bc 10a3 873c
00000030: e8d1 f6bc 46d0 c33c 38d7 03bc 38b5 503c
00000040: 563d d5bc f6aa 7b3c 4a01 513d 145b 35bd
00000050: c8d8 e03b ed2d 4abc 6c9c 92bb 11d9 ec3b
00000060: 419c 253d 4740 d0bc a153 0d3d ba11 05bd
00000070: 1eec 79bc 68aa ad3b 4012 6bbc 0a10 b33c
00000080: 752c 3bbc d408 ebba ec07 9bbc a9bb d43c
00000090: 9599 d2bc d16d 9c3c 590b be3c 080d 1ebc
000000a0: e8e6 83bc 62e0 943c dcb6 7b3c bb51 09bc
000000b0: 6bbf e43b 6641 1fbc d512 0d3c b593 a9ba
000000c0: d4cb edbc 9f1f 833c ee86 51bc 3594 903c
000000d0: ce9f fcbb 5dc0 d63b f74d 25bd b5e4 243d
000000e0: eb92 f03c b020 aabc 9afa a93c 229c 3cbc
000000f0: d81c 083d 47be d8bc 4a5d 3abd 6966 e33c
00000100: 124d a43c a410 aebb ec61 7b3d dc2b 3cbd
00000110: 1d69 393d c7fd f7bc 4a1c 213c 8b60 17bc
00000120: 6fac 223d 14b9 fbbc e57f 953a a50e a63b
00000130: 788a 333d 8dd3 2ebd 0926 a6bb 974c 533c
00000140: ccc4 2d3d 578d 2abd 1364 f43c 9c04 b1bc
00000150: 7759 ccbc 175f 9e3c 2642 57bd 70e9 2e3d
00000160: eebe a53c eeef 1abc 7e52 35bd e3f2 173d
00000170: 2952 c63c 5dfb 43bc 28a2 9e3c a799 c7bc
00000180: 50a3 c0bb 0c0d 40bb e45d 9abc ddf7 bd3c
00000190: e8e7 423c b0b3 97bc 053c abbc c208 a53b
000001a0: 6d09 b53b 86e8 13bc 3c75 9f3b 0637 99bc
000001b0: b2e8 7abc ffc0 b03b 50ca c63c 7e41 25bc
000001c0: 3f5b 363d d5cf 1cbd 2362 f33c 6eab a3bc
000001d0: 3257 ed3c 096d 79bc 95e0 bdbb 3298 863c
000001e0: 846f 00bd 7349 873c 1d3a 353c c54e 59bc
000001f0: e41a 1e3d 1283 46bd 8bb0 a93c 2255 7fbc
00000200: 16c5 cebd 44ba 953d aaf9 b9bd c9e9 793d
00000210: aa67 2a3b 5570 f5ba ce8c 6dbd e642 b83c
00000220: ac43 febd d236 cc3d ab0a b9bb 195d 8b3c
00000230: edf2 f8bd a7f7 bb3d 9bbc 963a 1025 4cbc
00000240: a2ba 88bd 3807 353d 5ebe 38bc f29e 3c3c
00000250: 9d1a 4ebd e2a6 303d 92f0 55bd ced8 623d
00000260: 869f bebc 7451 b63a 9f97 da3d 03a8 a9bd
00000270: be39 04be c19e aa3d 2fd5 2abd bc56 ac3c
00000280: 2490 213c 9c4d 71bc c67e cf3d 007b 93bd
00000290: 8893 9ebd 3f6b 923d b3d0 17bd 1eb1 bb3c
000002a0: 9242 893d 6d90 25bd b3d2 f5bc 6c4f e93c
000002b0: e702 bf3d 90d4 72bd 1bb2 e73b 2b17 5e39
000002c0: b889 b9bd 3b15 743d 4fdd 173d f827 8bbc
000002d0: 6d58 f03c 9450 e5bc b3da 96bc 6375 ba3c
000002e0: ce01 f0bd 047f c63d bcc1 a1bc a456 903b
000002f0: 8237 913c 16a3 debc 702c 943d 3783 51bd
00000300: 936c 853d a9f2 08bd 53e6 b33c 42a1 1fbd
00000310: 0a80 e6bd e687 ae3d 7b7c 6dbb 9227 dcbb
00000320: b595 563c e407 c9bc fa2f bbbd fac8 ac3d
00000330: dceb adbd beaa 8d3d 5121 e8ba 4106 b43b
00000340: ecc0 083e c7b8 cabd 0b65 b83c 8f0b 96bc
00000350: cdb2 2e3d 1285 01bd 7745 cfbd 045d cd3d
00000360: 871f 833d 327a efbc de98 99bc b7d3 a73b
00000370: c9cc fe3d b6fd c8bd e48e 873c 0f9e c03b
00000380: 3052 833d 5562 08bd a41d bc3d d509 96bd
00000390: d08d 6fbd 432c 1e3d 01bc 323d dcf4 45bd
000003a0: 9500 d93d aa66 97bd 3f42 8b3d d192 48bd
000003b0: abdb 033d cc2c f7bc e98e 8e3d e228 42bd
000003c0: a1d1 92bb 5e37 4e3c 8723 d1bc e1ca 9b3c
000003d0: 7655 95bd b23c 5b3d 048b 413d 3dd8 f1bc
000003e0: 77ec d1bd 6ec1 813d dc6f ee3c 22c5 eebc
000003f0: 5283 cdbd 7cfb 8c3d d922 52bd 3820 ab3c
-0.017105391 0.010970493 -0.0019671824 0.005848337 -0.024881382 0.017988846 -0.026620729 0.031994514
0.05324252 -0.04506691 -0.020668173 0.016557246 -0.030129388 0.023903023 -0.008046918 0.012738518
-0.026030224 0.0153605845 0.05102662 -0.044276312 0.00686178 -0.012340051 -0.0044742133 0.007228025
0.04043222 -0.025421275 0.034503583 -0.03248761 -0.015254049 0.005299855 -0.014347613 0.021858234
-0.011424174 -0.0017931708 -0.018924676 0.02596839 -0.025708 0.019095333 0.02319877 -0.009646662
-0.016101316 0.0181734 0.015363421 -0.0083813025 0.0069808266 -0.009720182 0.008610447 -0.0012937697
-0.029027857 0.016006289 -0.012788517 0.017648796 -0.00770948 0.006553693 -0.040357556 0.040257175
0.029366931 -0.02076754 0.020749379 -0.011511834 0.033230633 -0.026457919 -0.045499124 0.027758794
0.020056281 -0.0053120423 0.061372682 -0.045940265 0.04526626 -0.030272378 0.009833405 -0.009239326
0.039715227 -0.0307279 0.0011405913 0.0050676637 0.043833226 -0.04268222 -0.005070452 0.012896678
0.04242401 -0.0416387 0.029832875 -0.021608643 -0.024945004 0.019332452 -0.05255332 0.042703092
0.020232644 -0.009456618 -0.044268124 0.03709687 0.024209099 -0.011961785 0.019364432 -0.02436526
-0.0058788434 -0.0029304652 -0.018843599 0.02318948 0.011896111 -0.018518299 -0.020902643 0.0050364444
0.0055248053 -0.009027606 0.0048662703 -0.018702995 -0.015314268 0.0053941007 0.024266392 -0.010086415
0.044520613 -0.03828414 0.029709881 -0.019979205 0.028972242 -0.01522375 -0.0057945945 0.016429994
-0.03135635 0.016514516 0.011061219 -0.013263409 0.038599864 -0.048464842 0.020714065 -0.015584262
-0.10096185 0.07310918 -0.09080823 0.06101397 0.002600173 -0.0018725494 -0.05799561 0.022492837
-0.12415251 0.09971394 -0.0056470237 0.017012166 -0.121557094 0.09178095 0.0011500301 -0.012460008
-0.066762224 0.044196337 -0.011275856 0.011512505 -0.05031835 0.0431279 -0.05223138 0.055382542
-0.023269426 0.0013909773 0.10673451 -0.08283999 -0.12912652 0.08331061 -0.041707214 0.021037452
0.009861026 -0.014727976 0.10131602 -0.07201195 -0.07742983 0.07149362 -0.037064265 0.022911604
0.067021504 -0.04042094 -0.030007696 0.028480254 0.093267255 -0.059284747 0.0070707924 0.000211802
-0.09059471 0.05959056 0.03707629 -0.016986832 0.02933904 -0.027992524 -0.01841483 0.022761052
-0.11719094 0.09692195 -0.0197457 0.0044048596 0.017726664 -0.027177375 0.07235038 -0.051150527
0.065148495 -0.033434544 0.021960413 -0.038972147 -0.1125489 0.08522014 -0.0036237526 -0.0067185843
0.013097216 -0.024539895 -0.0914001 0.08436771 -0.08492252 0.06917332 -0.0017710124 0.0054939096
0.13354844 -0.09898525 0.022509119 -0.018316058 0.042650986 -0.031621046 -0.10120671 0.10027507
0.06402498 -0.029233072 -0.01874965 0.005121674 0.124414034 -0.098140165 0.016547628 0.005878217
0.064121604 -0.0332969 0.09185341 -0.07326094 -0.058484852 0.03861643 0.043636326 -0.04832922
0.10595814 -0.073926285 0.06799745 -0.04896814 0.032191914 -0.030172728 0.06960852 -0.04740227
-0.004480556 0.012586443 -0.025529636 0.019017639 -0.07291691 0.05352468 0.047251716 -0.029522056
-0.1025018 0.06335722 0.029106073 -0.029146735 -0.10034813 0.06883904 -0.051302765 0.020889387

base_model.model.bert.encoder.layer.1.attention.self.query.lora_A.weight f4 [2, 768]
00000000: e248 6cbb 60f4 9d3d 3408 dfbc 5e76 bbbd
00000010: 78b0 6bbc 3b56 123d 1397 1a3d ddac c83b
00000020: 5a03 43bd 325c d8bc ec4b 11bd 0f6d a23b
00000030: 2aa8 493d 5642 8bbd 28ee 6cbd cf71 373c
00000040: 06c1 e83c 51a2 183c 7152 43bd dddc 5cbd
00000050: 6eb5 83bd a5df 5b3d 8214 86bc ebb0 60bc
00000060: 06a0 243d cf6f 083d 4fef c2bd 414b 9abd
00000070: 46ae 143b 820f af3c cfbb 80bc 1130 3c3b
00000080: 9f25 533c b366 7d3c eba7 5a3d 16b8 b83d
00000090: f3d3 cf3c 87aa 463d 0990 323c ec89 503c
000000a0: d804 2b3d a5c3 143d 8b33 2a3c 8eec efbb
000000b0: 524a 59bd aba8 47bd db9b 68bd a7b8 d4bc
000000c0: 2cce 2339 0c03 2cbd 4bf0 a4bd 99a6 1c3d
000000d0: d25d 1e3d 0957 0e3d fec2 1c3d 90de e63c
000000e0: fe19 8c3c cc7b 09bd 5391 97bd 5323 38bd
000000f0: 7225 e1bc f8a1 0d3d c5ad 063d ffe6 4dbc
00000100: 944a 8ebd 037f ab3c f7f3 b2ba 5b2d eabc
00000110: c2d7 1dbc 617c 623d 7f2a f23d 4a73 b9ba
00000120: 0a10 8a3c 14a4 013b 24b3 a03d 5430 29bd
00000130: 9c17 ad3c aa6c 9a3c a5a9 893d 4e5a 27bc
00000140: e0be 193d 1152 43bd 5447 24bd 94f8 c93d
00000150: 881a d43c 608c 8d3a ac33 433d 1562 eabc
00000160: eabf 89bd dad2 74bd 387e 60bd b054 1abd
00000170: 77a7 843d 0900 c33d 0a0a d33c 14b1 573d
00000180: bd28 863d 2fa6 8ebd 665b 8dbd ed44 8ebc
00000190: 36f2 c9bd 2003 b0bd 7ab0 093d a25d b73d
000001a0: 84e6 c6bc 3e65 e13c f1b4 83bd 9952 a5bc
000001b0: 2934 a5bd 5043 d93c ea0c 173c a664 c23c
000001c0: 2f7d f1bc d3d3 ae3c 8a40 1cbd bc76 b9bc
000001d0: 7a70 87bd cc27 3abc 2aa8 3d3c c4b6 18bb
000001e0: b988 d5ba d2e9 cdbc 4fed 223d 770d 98bd
000001f0: f338 c1ba 14f6 b63b be40 65bd d301 dd3c
00000200: 49c7 f23b c86d 5e3d 4e7e 82bc 0b28 cdbc
00000210: aa9b 29bd 80c1 82bc fa9f 64bd 3b9e 35bd
00000220: fcdb 3cbd c625 82bd 46ad 493c 3bd6 71bb
00000230: 0352 623d af9d eaba 4097 74ba 4677 77bc
00000240: fd10 1b3d 3e6d 47bd 309e a43d 7a94 493d
00000250: 9f86 f43b e3b6 bd3c e549 e2bc d993 c93b
00000260: 836b 4a3d b7aa 1abd 920b cd3c 04c4 36bc
00000270: 545d 99bb 324a 1b3d 5006 1a3d 3e06 193d
00000280: d81c 913c 228a 99bc 21e4 b7bc 7a55 52bc
00000290: 5d07 1cbd 3917 5b3d b045 ae3c 0f37 85bc
000002a0: f339 bd3b 75b3 2b3d f755 8f3d 04d4 5ebd
000002b0: f37c cd3c dde8 36bd 7a01 02bc 5aa6 b2bd
000002c0: cbc4 8e3c 1f0d 0fbd b25b 2abd 2414 8d3d
000002d0: 104f 033d 68a4 a43d d22f 9d3b c90e 843d
000002e0: d80b 483c 8c20 4ebd 27fa d13d a10a 503d
000002f0: b1ac 63bc 4821 273d a33e 483c ad57 893c
00000300: afe9 353c a8d8 0f3d 6cbe f8bc 0cef b2bb
00000310: c5f0 383d f94f 7f3d 1df5 843c 4d69 a0bd
00000320: f4cd f3bc 3e59 31bd 6f77 c3bc 1721 a43c
00000330: 0aae 183d ca53 c3bc 25ae 40bd 17af a03c
00000340: c900 c83c c000 963d 092e a63d 8011 69bc
00000350: fe2f 113d 3a4d b83b 95bd a4bc 63ca 38bd
00000360: 6d7b 92bc 6523 973b 54ec 9ebc e896 98bc
00000370: aee0 3abd 15fd 6a3c 31f8 4b3c 3acc 1f3d
00000380: bc25 9e3d 7866 9a3d 995a 943c 9fd1 a73d
00000390: dcfe a23c b31e c0bd 97b3 7c3d d3ac 21bd
000003a0: 56d2 793d 0c30 c3bc b67a b7bd f087 c5bb
000003b0: 63a0 823b 1d33 ccbd d08c d5bc 11fd aebd
000003c0: 015c 0a3d 4b31 db3c 96f1 723c 6e7f a2bd
000003d0: dd47 8f3c 1c2a ffbc 646d d73b 5d11 923d
000003e0: 8c75 fb3c 64ce 913d 45e4 b63c 8511 2e3c
000003f0: bada 363c bb53 bb3d 2680 15bd c0ee 05bd
-0.0036054184 0.077126265 -0.027225591 -0.09153436 -0.014385335 0.035726767 0.03774173 0.0061241225
-0.04761062 -0.02641115 -0.035472795 0.0049568485 0.04923264 -0.06799762 -0.05784431 0.011196568
0.028412353 0.009316043 -0.047686044 -0.05392157 -0.06431089 0.05368008 -0.0163672 -0.0137140555
0.040191673 0.033309754 -0.09518301 -0.07533885 0.0022686883 0.0213697 -0.015714554 0.0028715173
0.012887388 0.01546638 0.053382795 0.090194866 0.02536962 0.04850247 0.0108985985 0.012728196
0.041752666 0.036319394 0.010388265 -0.0073219007 -0.053049393 -0.04874484 -0.05678926 -0.025966955
0.00015621696 -0.041995093 -0.08053645 0.038244817 0.038663693 0.034750972 0.038271897 0.028182298
0.017102238 -0.033565328 -0.07400765 -0.044955563 -0.027483676 0.034578294 0.032880563 -0.012567281
-0.069478184 0.020934587 -0.001365303 -0.02858608 -0.00963396 0.0552944 0.11824512 -0.0014148739
0.016853351 0.0019781636 0.07846668 -0.041305855 0.021129422 0.018850643 0.0672181 -0.010214401
0.03753555 -0.047685686 -0.040107086 0.09861866 0.025891557 0.0010799281 0.0476567 -0.028611222
-0.06726058 -0.059771396 -0.05480787 -0.03767842 0.06477254 0.09521491 0.025761623 0.05265911
0.06550739 -0.06965291 -0.069021985 -0.01736685 -0.09860651 -0.08594346 0.033615567 0.08953406
-0.02427984 0.027514096 -0.06430996 -0.020180987 -0.080665894 0.026521355 0.009219388 0.023729634
-0.029478638 0.02134124 -0.038147487 -0.022639625 -0.0661325 -0.011362027 0.011575738 -0.0023302296
-0.0016291357 -0.025135908 0.039777096 -0.07424443 -0.0014741704 0.005583534 -0.055969946 0.026978409
0.0074090105 0.054303914 -0.015929367 -0.025043508 -0.04140822 -0.015961409 -0.055816628 -0.044340353
-0.04610823 -0.06354861 0.012309378 -0.0036901373 0.055253994 -0.0017899777 -0.00093303993 -0.015104121
0.037858 -0.048688166 0.08037984 0.049213864 0.007462337 0.023158496 -0.027623126 0.006151658
0.049418937 -0.037760463 0.025029931 -0.011155132 -0.004680315 0.037912555 0.037603676 0.03735947
0.01771395 -0.018742625 -0.022447648 -0.012837762 -0.03809296 0.053488944 0.021273464 -0.016261606
0.0057747304 0.04191919 0.06998818 -0.054401413 0.025083994 -0.04465567 -0.007934922 -0.08723135
0.017427823 -0.034924623 -0.041591354 0.06888607 0.03205782 0.080391705 0.0047969604 0.064481325
0.012209855 -0.050324008 0.10252791 0.050791387 -0.013896153 0.040803224 0.012221965 0.01676544
0.011103078 0.03511873 -0.030364238 -0.0054606255 0.04515149 0.062332127 0.01623016 -0.078325845
-0.029761292 -0.043298 -0.023860661 0.02003531 0.03727535 -0.023843665 -0.047041077 0.01961474
0.024414437 0.07324362 0.08114249 -0.014225364 0.03544616 0.0056244405 -0.020109931 -0.045114886
-0.01788112 0.0046123737 -0.0193998 -0.018626645 -0.045624427 0.014342566 0.01244931 0.039013125
0.07722041 0.075390756 0.018109607 0.08194279 0.019896917 -0.093808554 0.061694708 -0.03947146
0.060991608 -0.023826621 -0.08958952 -0.006028168 0.0039864047 -0.099706866 -0.026068121 -0.08544362
0.033779148 0.026756903 0.014828106 -0.079344615 0.017490322 -0.031148009 0.0065743197 0.07132218
0.0306957 0.07119444 0.022325644 0.010624294 0.011160547 0.0914683 -0.036499165 -0.032698393

base_model.model.bert.encoder.layer.1.attention.self.query.lora_B.weight f4 [768, 2]
00000000: 0bbd 583b 0ddf 8f3d baf9 0abe b9ed 283c
00000010: 71d9 003d 1c91 563c a119 443c 0079 81bc
00000020: 8622 103d eeab 7537 0685 a73c ce94 21bc
00000030: d37b 8dbd a4be 3e3d 3582 91bc 7962 823c
00000040: 335a 37bd 6287 79bb dff3 243d b231 36bd
00000050: 55e5 1d3d e87a b5bd 1547 e53b 062d ce3c
00000060: b87e 4d3d 9a2c a4ba 1284 a63d d199 253c
00000070: f817 b23c 2113 34bd 07cf e3bc 0145 f73b
00000080: 3aa2 7f3c 3fec 84ba 56c0 2abd 347a b6bc
00000090: 5ee0 9a3c 083d 993d 2d31 673d 76b2 05bb
000000a0: f87a 123d b101 41bc 0005 99bc 5f89 62bd
000000b0: a02b 83bd 3687 463d 0a36 38bd 63da 1a3d
000000c0: bbf4 2ebd f165 e33c a604 21bd 0710 3bbd
000000d0: 670e d03c d91c 40bb edd4 ed3b a618 243d
000000e0: 1159 913c 10bb 323c 171f a3bd 86ac ab3d
000000f0: 7edf 94bd e568 48bd ba34 5d3d 50c4 8abd
00000100: 7f6f 8cbd 1d0e 2a3d 1a12 533d 024d 153d
00000110: e928 943d ddb2 a33c c933 7b3d 9035 ecbb
00000120: 583d f83b 6ef1 8a3c 4759 a0bc ddce b8bc
00000130: 3cd5 903d 4b96 d93c 7a5e 5d3d d0d8 c5bd
00000140: 093e 873c 4d0b 853c 7016 b9bc 821a 33bd
00000150: e8df 9a3c f171 173c d6d1 70bc 7fc3 803d
00000160: 15c9 4dbd a381 99bc aebc 46bd 4aa0 5b3d
00000170: 9232 603d d990 6cbc 2a13 b3bc 2ef3 163c
00000180: eba8 123d ec36 ddbc b519 8ebc d50d 5b3d
00000190: 0e93 1dbb a8f6 493d b23d 06bd 261a 8c3d
000001a0: 3258 ef3c d973 c0bc e771 00bd ff28 063d
000001b0: 1a3f 713d 9cd8 19bd b1a2 26bc 0d65 a53b
000001c0: 8655 123d a8ff a93d fa61 cfbc 88ff 30bd
000001d0: d1e1 573d a3ad 89bb dba8 c23c 8ee8 af3b
000001e0: f87c b7bd 9202 ecbc b0d7 1dbd cf41 5a3c
000001f0: 98f3 d3bc 432f 01bc 07a1 d33c 96ec 86bc
00000200: 34fd 13bd 4ce6 b1bc c40d 343c 5af0 483c
00000210: 4cd0 4eba c274 11bd 74cd 6dbc c68f 63bb
00000220: 9332 4b3d cf30 2d3d ce3e 0cbc f06a eb3c
00000230: d618 2cbd 0271 61bd f62b a2bc 1329 5eba
00000240: 86ce 22bb f04e febc 8ecf 0ebb bdd2 613d
00000250: 2e1e 0f3d 4b9c 3c3d 0662 1d3c d5dc b3bc
00000260: 7627 5e3c ef01 303d 2d38 753d 0b06 573d
00000270: 7ca6 153d c942 d13c 1bd7 77bc 8ef4 99bd
00000280: df72 82bc 02c1 3fbb 9750 c93c 850f 853d
00000290: d110 d63c f7ad b03c 03a5 24bd 5a6f 11bd
000002a0: bcbc 763b 2342 b23c 1a88 cc3b d410 72bb
000002b0: 6266 fc3b 52a4 0a3c 8e21 0abc 6ee8 aebc
000002c0: 7b4d 0abb 3094 c63c 18fe bbbc 10ae a5bc
000002d0: 86c9 273b 7e13 cabb 14f3 93bc 6fa4 2fbd
000002e0: b0c3 463d 4426 c43c 8f89 6b3c 5a30 74b9
000002f0: ca99 a23c dcc1 f93c 75ca 723c 94ef 0dbd
00000300: 3240 793c a37e 0d3d 5593 a9bb 44b5 d3bc
00000310: c93f a83c 71ca f73b be4d 94bc 466e 133d
00000320: ac7b 1c3d 06a3 0a3d 7bbd 773d 9b1d f43c
00000330: c2c7 4dbd 84ca adbc 25a2 fdbc 6aec c0bb
00000340: 0c20 c0bc aab4 83bb 07b5 92ba d096 e4bb
00000350: 8e8c b83c fcca fc3b 40ca b4b9 8733 07bc
00000360: f325 0fbd a197 dfbb 03df b7bc e41d f63a
00000370: cad7 8f3c 84ba e23b 5660 c13c e51e d2bc
00000380: 4c60 ffba c72d 343c ff55 13bc cd00 833c
00000390: 77d1 ccbb 7db9 f0bb a606 d23c ce70 263d
000003a0: 73f6 823c 011d 653c 7694 58bd 68eb 89bd
000003b0: b308 0a3b 6283 a83c c7e6 813c b23a 943c
000003c0: ddf2 963a 783d 59bc f7e7 f03c cc64 4d3d
000003d0: 3a7d 18bd f606 97bc ad5f bebc 5056 36bc
000003e0: 201a 1d3c 5155 c73b da6e fa3c 7a55 f4bb
000003f0: af5d 2aba 8d8f 663d 8742 283d 0d26 2b3d
0.0033071663 0.070249654 -0.13571826 0.010310584 0.03145737 0.01309612 0.011969001 -0.015804768
0.035189174 1.46431685e-05 0.020449173 -0.009862138 -0.06908383 0.046568528 -0.017762283 0.015916096
-0.044763755 -0.003807508 0.040271636 -0.044480987 0.038548786 -0.08861333 0.006996999 0.025167953
0.050169677 -0.0012525499 0.08130659 0.0101074735 0.021739945 -0.043963555 -0.02780868 0.0075460677
0.015602643 -0.0010141208 -0.041687332 -0.022275068 0.018905815 0.07482344 0.056443382 -0.002040056
0.035761803 -0.011780188 -0.018679142 -0.05530679 -0.06404805 0.04846879 -0.04497341 0.037805926
-0.042713862 0.02775857 -0.039311074 -0.04566958 0.025397493 -0.002931407 0.0072580487 0.04006257
0.017742665 0.010908857 -0.07964914 0.083825156 -0.0726919 -0.04892816 0.054005362 -0.06775725
-0.06857204 0.041517366 0.051530935 0.036450393 0.072343655 0.01998275 0.061328683 -0.0072085336
0.007575672 0.016960826 -0.01957382 -0.022559578 0.07071921 0.026560923 0.054045178 -0.09660494
0.016509073 0.01624074 -0.022593707 -0.04372645 0.018905595 0.009243474 -0.014698466 0.06287288
-0.050240595 -0.018738573 -0.048519783 0.05361966 0.054735728 -0.014438831 -0.021859724 0.009213252
0.035805624 -0.027003728 -0.017346242 0.053479988 -0.002404395 0.049307495 -0.03277368 0.06840925
0.02921686 -0.02349274 -0.031358626 0.03275394 0.05889807 -0.03756009 -0.010170625 0.0050474466
0.035726093 0.08300716 -0.025315274 -0.043212444 0.05270559 -0.0042016073 0.023762157 0.005368299
-0.08959383 -0.02880982 -0.038535774 0.013321354 -0.02587299 -0.007884803 0.02583362 -0.016470235
-0.036130145 -0.02171626 0.01098961 0.0122643355 -0.0007889315 -0.03551174 -0.014514316 -0.0034723147
0.04960878 0.042282876 -0.008559896 0.028737515 -0.042015873 -0.055039413 -0.019796353 -0.00084747485
-0.0024842336 -0.0310435 -0.0021791193 0.055132616 0.03494089 0.04604749 0.00960589 -0.021955887
0.013559213 0.042970594 0.059868027 0.052495997 0.036535725 0.025544541 -0.015126969 -0.07517348
-0.015923915 -0.0029259329 0.024574561 0.06497101 0.026131066 0.021567328 -0.04019643 -0.035506584
0.0037649116 0.021760052 0.0062418105 -0.00369363 0.0077026347 0.008462029 -0.008430852 -0.021351065
-0.002110331 0.024240583 -0.02294831 -0.020224601 0.0025602295 -0.0061668744 -0.018060245 -0.042881425
0.048526466 0.023944028 0.014376058 -0.00023287666 0.019848723 0.030487947 0.014818777 -0.034652308
0.015213059 0.0345446 -0.005175034 -0.02584327 0.020538228 0.0075619747 -0.018103477 0.035993837
0.03820388 0.033846878 0.060483437 0.029799273 -0.050239332 -0.021214731 -0.030961106 -0.0058875578
-0.023452781 -0.0040193396 -0.0011192866 -0.006975986 0.02252796 0.0077146273 -0.00034482963 -0.008252031
-0.0349483 -0.0068234955 -0.022445207 0.0018777219 0.01755895 0.006919207 0.023605507 -0.025649497
-0.0019483655 0.010997242 -0.008992671 0.015991593 -0.006250556 -0.0073463307 0.025637936 0.040634923
0.015986657 0.013983966 -0.05287596 -0.06734353 0.0021062314 0.02057046 0.015857114 0.018094394
0.0011516471 -0.013259284 0.029407484 0.050144956 -0.0372288 -0.018435936 -0.023238981 -0.011128977
0.009588748 0.0060831686 0.030570436 -0.0074564787 -0.00064989453 0.056289244 0.04107907 0.041784335
